PriceWeights.pt (torch, 55834 bytes, 21 tensors)

embd_list.0.weight f4 [2, 1]
00000000: ff29 8f3e 8cc8 85bf
0.27961728 -1.0451827

embd_list.1.weight f4 [3, 2]
00000000: 219b 0e41 30fc 05c1 91d6 19bf cc50 df3e
00000010: 4dea 2ebf bc38 a03f
8.912873 -8.374069 -0.6009303 0.4361633 -0.68326265 1.2517314

embd_list.2.weight f4 [63, 32]
00000000: 9034 4fbf 610e bbc0 fcb0 6bbf 212d 5441
00000010: 73d9 943f db75 fb3e 67c2 98c0 7191 8abf
00000020: 8b38 47c0 92af c5c0 5733 e3bf d380 6fbf
00000030: a912 0941 df20 bec0 a92f 18c0 a199 0dc0
00000040: c9b8 6b3f 8029 7641 1814 15be 6ba5 64bf
00000050: d4d8 9b3d c977 4f41 5dca 6941 6772 f3bf
00000060: 0a99 b940 ddd5 af3f 5c9e 60bf c2cf 4941
00000070: 4640 9abe 73bd 1cc1 157b 78c0 ecb5 2f41
00000080: 53f6 333f 0043 6bbe 19e6 87c0 d301 3e3f
00000090: d5e0 8240 dcfe b540 5cf8 b6c0 262a adc0
000000a0: 9e41 c23d 8010 dcc0 16cf 8dc0 a23a 803d
000000b0: ec74 d2bd b22d b43c defc 3ac1 6a2f 33bf
000000c0: 3483 b540 f55a 80be 8adc 03bf 7120 cdbd
000000d0: 85ea e33d d2af 46bd e4cc 253d 95c1 613e
000000e0: 3f0d db3e aadd 6cbe d3d9 30be 24e7 a93e
000000f0: 46cc 6d3e ae47 dbbc 4edf 08bf ab40 d2be
00000100: 9311 d43f 9cb8 bdc1 a415 753f 9ac1 f240
00000110: d0a6 8fbf 6f10 45bf 5a39 8ac0 ce05 f53f
00000120: 55a3 5cc1 c51a 40bf db11 433f c7e5 0041
00000130: 0278 b841 efea 51c0 0f9e 0b40 ca08 1dc1
00000140: c777 38bf 5dfe 9241 9a27 4941 5c76 a93f
00000150: ed51 4dbd 8cbf 4141 6e08 b740 d6e4 7640
00000160: 8ac2 c341 2cd5 f940 5d6b 83c1 58b6 2541
00000170: 2d7f 0240 5446 9fc1 75e3 ccc1 34c9 1542
00000180: e2a5 af3f 7eed 503f e5a3 b3be 8f81 4abf
00000190: 7cda 1041 af2e 373f fdf5 71bd 3319 2bc1
000001a0: f0ce f03e 9d51 89bf 5661 b1be 8ed5 a13c
000001b0: d400 d5be bbbf e13e da47 7ebf d25d 513f
000001c0: 71da 4141 0c8b 693e 66c1 823d aaca dc3f
000001d0: 80b4 07bd d3cf 14bf 81ec e6be 1af9 44bf
000001e0: d49b 37be 0426 893f 1498 ff3e d8cd d1be
000001f0: d8f8 a43f 68b4 e03e 8770 c9bd 2377 2d3e
00000200: 487d 1640 04d5 f6c0 9113 153f d158 99be
00000210: ec30 ccbf ce05 54bf 08dd 62c0 9820 9f3f
00000220: b40c 9e3f e7ac 2840 5d35 4f3e c08c 6141
00000230: 8564 4f41 0acd 833f 9125 f3bf 5a4b 91c1
00000240: 5e02 9ebf 7ccd 4dbe 5ced ef40 af81 e63f
00000250: 66c0 97c1 a03f 103e 6af7 983f 8810 0741
00000260: 1b20 b340 5d53 0142 6961 41c1 0404 24bf
00000270: da4a 923f e499 c0c0 8695 fec1 9686 3041
00000280: fd55 a93f a07e e1c1 0f07 d43f c33e 2b41
00000290: 4dd2 01c0 bbfe e3bf cb05 aec0 bce2 cd3f
000002a0: 59dd 6ec1 f5e7 4ec1 e7b5 eb3f 365f 4641
000002b0: 8a32 d741 8811 3740 de7d 3940 a852 e2c0
000002c0: 0c95 88bf cf0d 2542 dc1d b741 cfb9 1240
000002d0: c5ca c4bf fbf0 b041 87c8 c840 b44b 9f40
000002e0: 0017 df41 a700 3141 2e9a 48c1 062e 8b41
000002f0: 426c 5840 1497 04c2 fb2a fcc1 81a7 4c42
00000300: fd53 6cbf 0717 70c1 e685 e1be c634 7840
00000310: d4de 0ebf 682a e3bd a928 79c0 9a9b e63e
00000320: a547 cbc0 f2c7 873f 1771 543e 5262 1b40
00000330: 7539 8d40 82eb 2bc0 1c00 35c0 9d77 a5c2
00000340: 26da 1abf 3f10 bfbf ad2a f140 a156 8b3f
00000350: 0541 da3f 0054 1841 a0d4 f341 36dc 7640
00000360: 637d 9041 93a9 cd40 2387 58c1 2930 8f41
00000370: 126d 0ebf 3a90 bfc0 c448 3ec1 87be ad41
00000380: 02a0 47c1 1ee9 cfc1 b8fb acbe a5c3 8741
00000390: 7a38 16c0 46af eb3f 32ae 17c1 4b15 eb3f
000003a0: e075 b3c1 65a0 3840 a633 63c0 b300 9840
000003b0: 877a d73f 0e9f 4fc2 04cf 0bc1 0d12 e2c1
000003c0: 2cb3 e9bf 44fa 4241 d507 6bc0 d6e6 633f
000003d0: 1bdc 5440 5c5b a640 7852 5840 0933 f740
000003e0: 0ef8 f141 fe61 9c3f c5e6 53c2 83ea f940
000003f0: 6975 40c1 f569 89c1 a518 ffbf 3125 2e40
-0.8093958 -5.845505 -0.9206693 13.261018 1.162886 0.49113354 -4.7737308 -1.0825635
-3.112826 -6.177682 -1.7750043 -0.93555945 8.567056 -5.9415126 -2.377909 -2.2125018
0.92078835 15.385132 -0.14558446 -0.8931491 0.07609716 12.966744 14.611905 -1.9019288
5.7999315 1.3737141 -0.8774164 12.613222 -0.30127162 -9.796252 -3.8825123 10.9819145
0.70297736 -0.22974777 -4.246838 0.74221534 4.0899453 5.687361 -5.7178173 -5.411395
0.09485172 -6.877014 -4.431529 0.06261183 -0.10276207 0.021994445 -11.686735 -0.69994223
5.672266 -0.25069395 -0.5150839 -0.10015953 0.111287154 -0.04850752 0.040478602 0.22046502
0.42783543 -0.23131433 -0.17270593 0.3318416 0.23222455 -0.026767578 -0.53465736 -0.41064963
1.6567863 -23.715141 0.95736146 7.586133 -1.1222782 -0.769782 -4.319501 1.9142396
-13.789876 -0.7504085 0.7619912 8.056098 23.058598 -3.2799642 2.1815221 -9.814646
-0.72057766 18.3742 12.572168 1.3239245 -0.05012696 12.109264 5.719779 3.857717
24.46999 7.807272 -16.427423 10.3570175 2.0390122 -19.90934 -25.611063 37.446487
1.3722498 0.81612384 -0.3508598 -0.7910394 9.053341 0.7155561 -0.059072483 -10.693652
0.4703288 -1.0728031 -0.34644574 0.019755151 -0.41602194 0.4409159 -0.99328387 0.81783783
12.11583 0.22806948 0.06384544 1.7249348 -0.033131123 -0.58129615 -0.45102313 -0.769426
-0.17930537 1.0714726 0.49920714 -0.4097736 1.2888441 0.4388764 -0.09835916 0.16939978
2.3513966 -7.713503 0.5823298 -0.29950574 -1.595243 -0.8282136 -3.5447407 1.2431822
1.2347627 2.6355531 0.202352 14.096863 12.962041 1.0296948 -1.8995839 -18.161793
-1.2344472 -0.20097917 7.4977245 1.8008326 -18.968945 0.14086771 1.1950505 8.441536
5.597669 32.33141 -12.086282 -0.6406863 1.1429093 -6.0187855 -31.82301 11.032858
1.3229367 -28.186829 1.6564654 10.702823 -2.0284607 -1.7812113 -5.438207 1.6084819
-14.92904 -12.93163 1.8414887 12.398245 26.899677 2.860445 2.8983073 -7.07259
-1.0670485 41.263485 22.88958 2.2925909 -1.537438 22.117666 6.2744784 4.977991
27.88623 11.062659 -12.537642 17.397472 3.3816075 -33.147537 -31.520987 51.163578
-0.92315656 -15.005622 -0.4404747 3.878221 -0.5580876 -0.11092073 -3.8931067 0.4504059
-6.3524957 1.0607893 0.20746265 2.427876 4.413264 -2.6862493 -2.8281317 -82.73362
-0.6048912 -1.4926833 7.5364594 1.0885812 1.7051092 9.520508 30.47882 3.8571906
18.061224 6.42695 -13.532992 17.898516 -0.5563518 -5.986356 -11.892765 21.71803
-12.476564 -25.988827 -0.33785796 16.97053 -2.347197 1.8412864 -9.480028 1.8365873
-22.432556 2.8847897 -3.5500274 4.7500854 1.6834267 -51.905327 -8.738041 -28.258814
-1.8257804 12.1861 -3.672353 0.890241 3.3259342 5.1986523 3.3800335 7.72498
30.24612 1.2217405 -52.97536 7.809877 -12.028665 -17.176737 -1.9929396 2.72102

embd_list.3.weight f4 [3, 2]
00000000: 278a b8c0 6dc9 cfc0 db61 793f b338 8e3f
00000010: 0ef4 1740 b0b5 1740
-5.7668643 -6.493338 0.9741494 1.1111053 2.374271 2.3704643

batchnorm.weight f4 [6]
00000000: b765 d341 e4c5 dc41 7b92 9941 31fd b941
00000010: 94d9 f341 f8e7 b841
26.424665 27.596626 19.196524 23.248629 30.48124 23.113266

batchnorm.bias f4 [6]
00000000: a607 9341 fce3 7d41 c011 9941 52eb 5741
00000010: 01f4 9a3f cb99 0ec1
18.378735 15.86816 19.133667 13.494951 1.2105714 -8.912547

batchnorm.running_mean f4 [6]
00000000: 1db0 8240 50ba d040 7c05 2941 af89 b141
00000010: 4b25 2941 6eaf 5941
4.083998 6.522743 10.563839 22.192228 10.571605 13.6053295

batchnorm.running_var f4 [6]
00000000: 68ba 2e42 00a3 1442 aa32 0943 337e 5243
00000010: 16ad 4a43 9b3d eb42
43.682037 37.15918 137.1979 210.49297 202.67612 117.62032

layers.0.weight f4 [100, 43]
00000000: 2b06 a0bf 4a5c 8940 92b6 3ac0 fc9b c0be
00000010: 95bb 853e b3b8 1740 1909 9fc1 e83b 25c0
00000020: a6ae d2bf 25e8 be40 c135 9740 54f8 aa41
00000030: 9894 0341 828a 7940 6b7d ebbf a410 86bf
00000040: 689e a33e daf5 dc3e 9cd4 22bf 53e7 69c0
00000050: ba48 88c1 76cb 403d 0287 99bf 3bb0 d63f
00000060: 63b6 47c1 d3f1 f7c0 f2f6 12c0 f234 c7bf
00000070: 5462 143f a32c 4cbf 57c6 4bc1 3e75 f63f
00000080: 7065 8dbe 2513 54c0 791a 543f 3f44 8041
00000090: 14d5 8d41 29b4 cfc0 6683 6941 6d50 04c2
000000a0: f8b7 1a41 460a 0cc1 04d1 60c1 5b2e 4cc0
000000b0: 5816 57c0 d284 8740 6ef7 9940 3499 513f
000000c0: 87e2 0541 154b 4abf 1af7 11bf 09d7 0dc1
000000d0: c784 1740 beee b33f 90c6 adbf 89a2 2fbf
000000e0: aedb 1541 7c34 a6be 7428 193e 0180 c93f
000000f0: d08c 2541 48dc 203f f4d4 9bbf 6bf1 a43e
00000100: 2001 4e3e ea7f adbf 5b7a 36be afe9 a6bf
00000110: faf0 f2bf 1a92 7dbf 0a25 27bf fb1a 81bf
00000120: ca9e fa3d 3d21 11c0 e62e 0741 73d6 a03e
00000130: cf55 7a3e 203a a5bf 0a8a eebe b6ef ed3f
00000140: 020f e5c0 087c 5441 4245 9f40 f793 55c0
00000150: 42de 5cc0 efa2 93c0 e7a0 7541 fc1e 6640
00000160: f8d1 36c0 c832 a13f 8170 8240 82ca babf
00000170: 2d94 90c1 181e 4dc0 809e 22c0 b51c dcc0
00000180: 4d4d 3d40 a833 2841 4a6e b0c0 3586 b5bd
00000190: f858 08c2 d8a6 0a40 386c 7341 63f8 87c0
000001a0: 43e6 9341 b8aa b1be e505 8ac1 9cbe c7c1
000001b0: b793 6840 63d2 1b42 1a17 8bc1 73fa 66c1
000001c0: 979f 83c1 36ea 9fc0 6578 78c1 fb05 d441
000001d0: a702 8ec1 2001 1740 92b6 4741 8624 f940
000001e0: 127d 0240 7de3 0ac1 278d 02c1 5ba9 ae40
000001f0: 6a31 30c0 3c0e d9c0 0433 b3bf 85e6 0541
00000200: b82b 18c1 9a10 8c41 5d21 693f f22c 9abe
00000210: 4ac9 8ebd 6aac 7e41 c57d 7ac0 8c3f 423e
00000220: 700e 1840 23e8 9240 2000 0ec0 8626 5cbf
00000230: ebd0 363e 7199 4bbe e35a 10c0 01e3 e23f
00000240: 7a99 52c1 9b5d 75bf 0fcb 84bf 3f27 c640
00000250: a50b fb3e 825e 173f 28b2 d93e 4a39 263f
00000260: 37f5 7d3d 3334 23bf 8fe9 a0be 355c 37c1
00000270: 16d7 93c1 a0e4 27be caf2 8640 c721 51bf
00000280: 0942 32bf d12d 9d41 b5c0 5640 1488 55c1
00000290: 9a6c 05c1 6305 4bc1 dc83 5cc0 9b54 99c0
000002a0: 88bf 28c0 8673 6a40 84fa b240 ae17 2840
000002b0: aae9 ef41 f7dd 5440 902f 63c0 a71b 2d41
000002c0: 55d6 97c0 11df ae40 32e4 0740 25bb 8bc1
000002d0: fd6a a3c0 a368 0ec1 1302 8741 8447 2dc0
000002e0: 7f7c 44c1 b6b1 6c40 8298 1740 2497 9640
000002f0: bcaf c73e 7168 0cc0 95e6 0c40 4636 60c1
00000300: 2a69 ee40 8bf5 1841 1b20 9341 e7f0 20bf
00000310: 123c c140 c799 cfbe 6cee 9dc0 f909 a040
00000320: 4bc9 6cbf 7892 a93e 0cd4 8b40 5bce 0341
00000330: 458d c5bf c9f8 7cc0 bffd 9c40 8add 0b3f
00000340: 5e02 0d40 ca7a 4640 1d4b 1d41 0678 6441
00000350: e568 5b3f d66e bdc0 4f30 82c1 03a6 a4c0
00000360: 3cc7 bebf 9245 b23f 1969 5341 0b3a b941
00000370: 99d4 c340 ea06 cebe 1e03 2fbf 67c6 2fc0
00000380: b277 2dbf ddda a53f 74ef 3641 bd24 ba3f
00000390: 1f9b 4240 2ace e4c0 c3cb d9c1 6d88 68be
000003a0: 6e90 623d e855 5d41 9d72 ffbf 9a94 5dbe
000003b0: ef9d 0fc0 11a4 c23f 5cce c63f 92d2 abbf
000003c0: aa9c 33be 43a1 79c1 d70d acc1 5be9 81bf
000003d0: 9a82 8641 baf7 7bbf f494 6641 c999 9541
000003e0: ebd5 cb40 300e 69c1 483f 9ec0 97b1 82c0
000003f0: f444 35c1 c58a 70c0 ac23 3440 3a97 0340
-1.2501882 4.2925158 -2.9173932 -0.37619007 0.26119676 2.3706481 -19.879442 -2.5817814
-1.6459548 5.965838 4.7253118 21.371254 8.223778 3.8990788 -1.839765 -1.0473828
0.31956792 0.4315632 -0.63605666 -3.654744 -17.035511 0.047069035 -1.1994326 1.6772531
-12.482028 -7.7482696 -2.2963223 -1.5563033 0.57962537 -0.7975561 -12.735923 1.925453
-0.27616453 -3.3136685 0.82852894 16.033323 17.729042 -6.490742 14.59458 -33.07854
9.669914 -8.752508 -14.051029 -3.1903293 -3.3607388 4.2349634 4.811454 0.81874394
8.367805 -0.79020816 -0.5701767 -8.864999 2.367479 1.4057233 -1.3576221 -0.68607384
9.366133 -0.32461917 0.14956838 1.5742189 10.346878 0.6283612 -1.2174363 0.32215437
0.20117617 -1.3554661 -0.17820112 -1.3040065 -1.897979 -0.9905106 -0.6529089 -1.0086359
0.12237318 -2.2676537 8.44895 0.31413612 0.24446796 -1.2908363 -0.4658969 1.8588779
-7.158082 13.280281 4.9772043 -3.337156 -3.4510655 -4.6136394 15.351783 3.5956411
-2.8565655 1.2593622 4.0762334 -1.459305 -18.072351 -3.2049618 -2.540924 -6.8785043
2.957843 10.512611 -5.513463 -0.088634886 -34.086884 2.1664333 15.213921 -4.2490706
18.487432 -0.3470056 -17.252878 -24.968071 3.6340158 38.955456 -17.38628 -14.436145
-16.452925 -4.99734 -15.529393 26.50292 -17.751295 2.3594437 12.482073 7.7857084
2.0388837 -8.680539 -8.159461 5.4581733 -2.753016 -6.7829876 -1.3999944 8.368779
-9.5106735 17.508106 0.91066533 -0.30112416 -0.069719866 15.917093 -3.9139264 0.18969554
2.3758812 4.590837 -2.2187576 -0.8599628 0.17853133 -0.19882752 -2.2555473 1.7725526
-13.16247 -0.95845956 -1.0374469 6.192291 0.49032322 0.5912858 0.42518735 0.64931166
0.062001433 -0.63751525 -0.3142819 -11.4600115 -18.480022 -0.16395807 4.2171373 -0.81692165
-0.6963201 19.647371 3.355512 -13.345722 -8.339014 -12.688815 -3.445548 -4.791578
-2.6366901 3.663301 5.5930805 2.6264453 29.989094 3.3260477 -3.549778 10.819251
-4.7449136 5.46473 2.123303 -17.46638 -5.10681 -8.900546 16.876013 -2.70749
-12.280395 3.6983466 2.3686833 4.70595 0.39001262 -2.1938746 2.2015736 -14.01325
7.4503374 9.559947 18.390676 -0.6286759 6.038583 -0.4054701 -4.935354 5.0012174
-0.9249465 0.3311956 4.3696346 8.23788 -1.5433737 -3.9526846 4.905975 0.54634917
2.2032695 3.1012444 9.830838 14.279303 0.8570693 -5.91978 -16.273588 -5.145265
-1.4904552 1.3927481 13.213159 23.153341 6.119702 -0.4023965 -0.6836413 -2.7464845
-0.67760766 1.2957417 11.43346 1.4542462 3.0407178 -7.1501665 -27.224493 -0.22708292
0.05531352 13.833473 -1.9956852 -0.21638718 -2.2440145 1.5206319 1.5531726 -1.3423636
-0.17540231 -15.601871 -21.506758 -1.014934 16.81377 -0.98424876 14.4113655 18.70009
6.369863 -14.565964 -4.945225 -4.0841784 -11.329334 -3.7584698 2.8146772 2.0561051

layers.0.bias f4 [100]
00000000: 55c2 01c2 1aea 24c3 a798 bf42 814a 3743
00000010: 66d5 1243 3936 8842 e080 22c3 4e79 f7c1
00000020: 6574 6ec2 45da aac2 f544 2c42 1f88 22c2
00000030: 9917 92c2 a74a 7542 3b74 86c2 c56a bc42
00000040: aef2 ed40 e2f5 a0c2 dfda b042 4419 e142
00000050: 252c 3343 680d 0643 79c6 f7c0 c526 2142
00000060: 55e5 6341 e133 b341 b0b9 11c2 5f85 00c2
00000070: d3fb 06c3 ea56 e042 76e3 903f 655d 2a43
00000080: 3b37 9342 2b1b 0142 7760 83c2 4a35 99c2
00000090: 58cd b442 5ca6 0242 5498 f4c2 9372 f7c1
000000a0: a474 b9c2 a4f5 7a41 b223 f5c2 11e0 98c1
000000b0: 6a3e 7dc2 cce4 0343 8e8b 0cc1 d497 d741
000000c0: ecd3 6ac1 47d0 0bc1 32f8 cec1 13cc 3843
000000d0: 6a80 1243 6b1b 5cc0 7e0e c441 f859 ff42
000000e0: de82 c5c0 1d9a ccc2 d55e 9a41 c30c 25c3
000000f0: 136b e4c2 6059 47c1 de8e e042 de33 99c2
00000100: 81ff 9dc1 0ff3 a1c2 f263 ec41 c3c3 ab42
00000110: e855 27c1 8751 9bc2 c430 3342 633f e23f
00000120: e69c 3742 91c9 bf3f 7be6 48c2 025a 17c3
00000130: 34fb 8842 ade6 eec2 2416 08c1 3290 5dc2
00000140: a02a 57c2 4be4 1c43 79de 9ac2 2efc c3c2
00000150: 2a74 8fc1 6ec5 9740 8cc2 2cc1 0fba 8fc1
00000160: d88a 6242 080b 3b40 b3eb aec2 c49c ccc0
00000170: d377 d941 6a18 08c1 7bff acc2 3752 6742
00000180: 2b8f 95c2 bd5e 8642 31d8 4143 eea9 9042
-32.439777 -164.91446 95.79815 183.29103 146.83359 68.1059 -162.50342 -30.93423
-59.613667 -85.42631 43.06734 -40.63293 -73.04609 61.322903 -67.22701 94.208534
7.435874 -80.48024 88.42748 112.54935 179.17244 134.05237 -7.7429776 40.28786
14.243489 22.400331 -36.431335 -32.130245 -134.98369 112.169754 1.1319416 170.36482
73.60787 32.27653 -65.68841 -76.60408 90.40106 32.66246 -122.297516 -30.930944
-92.72781 15.684971 -122.56972 -19.109407 -63.31095 131.89374 -8.784071 26.949135
-14.676739 -8.738349 -25.87119 184.79716 146.50162 -3.4391735 24.507076 127.67572
-6.172225 -102.301 19.296305 -165.04985 -114.20913 -12.45932 112.27904 -76.6013
-19.749758 -80.974724 29.548801 85.88235 -10.458473 -77.65923 44.797623 1.7675594
45.90322 1.4983388 -50.22508 -151.3516 68.49063 -119.45054 -8.505405 -55.390816
-53.791626 156.89177 -77.43452 -97.99254 -17.93172 4.7428503 -10.797497 -17.965849
56.63559 2.9225483 -87.46035 -6.3941364 27.183508 -8.50596 -86.498985 57.830288
-74.779625 67.185036 193.8445 72.331894

layers.2.weight f4 [100]
00000000: 3962 933f 8bee c03f 2820 873f 28b3 803f
00000010: b2b7 9abf c8e1 983f 7e7a ba3f d313 cb3f
00000020: 921e aa3f 4a65 a73f a5b9 813f 4349 a33f
00000030: 9301 b33f f390 a93f 03ea b53f e28b 943f
00000040: 0000 933f 0e65 e03f dd92 8a3f ace1 9a3f
00000050: 8bdb ba3f b5a1 983f 8b5f f33f 1fbc a13f
00000060: 759b 973f f308 bc3f c79a 1c40 a9f6 97bf
00000070: 8fba c73f 94b3 b43f e4ed 9abf a5c0 7c3f
00000080: a6e8 8e3f 8860 7b3f 4a55 823f e325 4640
00000090: 8cd8 b33f 5a05 cb3f f754 1b40 01bd a03f
000000a0: fb31 75c0 050b 7c3f 5e0a 1740 f997 ab3f
000000b0: 1ca4 1340 fd1f 9f3f 3744 b83f d0cb 8dbf
000000c0: ad6b b33f 3457 ec3f 9579 d63f 4a74 88bf
000000d0: 2360 6d3f dd3c c93f bc5d a33f 5b26 a13f
000000e0: 3db4 963f 6514 29c0 2df4 913f fe45 c83f
000000f0: a72d 1940 17b1 b33f eb75 9c3f 7889 1c40
00000100: 0bdf bf3f c3a2 bf3f 7c88 1e40 3e07 0d40
00000110: 5e31 0740 08d5 b23f 6ef6 913f 1bc0 9c3f
00000120: 2056 953f c8c2 2b3f 4c94 913f 4cfd e63f
00000130: 863b db3f 143b 2440 5fae ed3f 821d cb3f
00000140: 8a2e 5940 18f0 af3f 8595 9bbf c2e2 923f
00000150: 2a26 9d3f 0df1 893f b50b a53f 1ab2 fb3e
00000160: f073 963f e8aa 9f3f a1e3 2d40 1b2f b23f
00000170: 1de1 8f3f faec 893f 6a0c 2040 0a87 d7bf
00000180: d5a2 0040 9d4e 6e3f cb0e 86bf 2987 a23f
1.151435 1.5072798 1.0556688 1.0054674 -1.2087309 1.1943903 1.4568632 1.5865425
1.3290579 1.3077786 1.0134779 1.2756733 1.3984855 1.324736 1.421204 1.1605189
1.1484375 1.753084 1.0826069 1.210012 1.4598249 1.1924349 1.9013532 1.2635535
1.1844317 1.4690231 2.4469469 -1.187215 1.5603808 1.4117303 -1.2103848 0.9873145
1.1164749 0.9819417 1.0182278 3.0960624 1.405046 1.5861008 2.4270608 1.255768
-3.8311756 0.98454314 2.3600078 1.3405753 2.3068914 1.2431637 1.4395818 -1.1077824
1.4017235 1.8464112 1.6755854 -1.0660489 0.9272482 1.5721699 1.276298 1.258983
1.1773754 -2.6418698 1.1402642 1.564636 2.3934114 1.4038419 1.2223486 2.4458904
1.4989942 1.4971546 2.4770803 2.203567 2.1123881 1.3971262 1.1403329 1.2246126
1.1666908 0.6709409 1.1373382 1.804605 1.712754 2.5661058 1.8568839 1.586838
3.3934655 1.3745146 -1.2155005 1.1475451 1.2277272 1.0776688 1.2894198 0.49159318
1.1754131 1.2474031 2.7170184 1.3920625 1.1240574 1.0775445 2.5007577 -1.6838086
2.0099385 0.93088704 -1.0473264 1.2697498

layers.2.bias f4 [100]
00000000: f0fe 163d 07b4 953e 5ff5 3dbd 94df 38bc
00000010: 4d47 0cbf ec26 a2bd a40c 4bbe 1838 c43d
00000020: 2226 a63e 4833 17be 1341 f33d 2b1a 3bbe
00000030: 78e4 0a3e 79a7 88be da38 64bd 8349 073e
00000040: 09ca 6b3c b1c9 8c3e 2118 05bc 72b0 c0bd
00000050: b8ad 523e 4570 0a3f b12f 413e ed10 d63d
00000060: 6ac4 1bbd 0bd1 b5bd 4c25 953e f381 113e
00000070: 0060 c8b9 9642 523d adc9 503e e606 023e
00000080: 664c 353e 9795 71be 22e4 0fbd 6603 053f
00000090: 9f00 16be 9200 68be 1c8e 293f b990 153e
000000a0: d448 80bf 0b61 ea3c 0ed5 a63e 6cd5 0f3c
000000b0: bb1b 1c3f 8a00 90be 2d3f 803d 1999 dc3d
000000c0: da13 213d 80d6 2f3d cf2b 263e 2931 f3be
000000d0: 1d8d a13d 10c3 4aba 1eac 853d 32f2 ba3e
000000e0: 7f4f 583e 610c 8dbe 319f 7cbe bdec a8bd
000000f0: ed2a 1d3f 2c7a c33e a9e8 40be 8299 8c3e
00000100: 8395 2d3e 8c70 dcbc 7278 c83d c208 e63e
00000110: 8432 103d f6da 01be 5450 cdbd e0b1 993e
00000120: 1715 80be bea3 cf3d 1808 7c3e 1eaa 7a3e
00000130: 287c 013f cebf 003f 0774 783d 36ff e63e
00000140: 8f8d 9b3e 38ba 7a3d 4fe0 0dbe a8ff 36bd
00000150: d941 e4bd 67eb a53d b1fc 9a3e 4516 dcbd
00000160: d9a3 d7bd 83be ba3d 9a1f 683e 49f5 373e
00000170: 0ec2 963d 2e78 973e ce21 103f fba5 fabe
00000180: 9404 283e 414d f1bd 28b6 4c3e 8c9e 31be
0.03686422 0.29238912 -0.046376582 -0.011283774 -0.54796296 -0.0791758 -0.19829041 0.095810115
0.32450968 -0.14765656 0.11877646 -0.18271701 0.13563716 -0.26690271 -0.05571828 0.13211636
0.014391431 0.27497628 -0.008123429 -0.09408654 0.20574081 0.5407756 0.18865849 0.10452447
-0.038029112 -0.088777624 0.29130018 0.14209728 -0.00038218498 0.051333033 0.20389433 0.12697944
0.17704925 -0.2359222 -0.035129674 0.5195831 -0.14648674 -0.22656468 0.66232467 0.14605989
-1.0022225 0.028610727 0.32584423 0.008778911 0.60979813 -0.2812541 0.0626205 0.107713886
0.039325573 0.042929173 0.16227649 -0.47498444 0.07888243 -0.0007734755 0.065269694 0.36512905
0.21124075 -0.27548507 -0.24670102 -0.08248279 0.61393625 0.38179147 -0.18838753 0.27460867
0.16951565 -0.026909135 0.09788598 0.44928557 0.035204425 -0.12681183 -0.10025087 0.3001852
-0.2501609 0.10138653 0.24612463 0.24478957 0.5058007 0.5029267 0.060657527 0.45116585
0.30381438 0.06121275 -0.13855098 -0.044677407 -0.11145372 0.0810154 0.30270913 -0.10746435
-0.10529298 0.091183685 0.22668305 0.17964663 0.07361232 0.29583877 0.5630158 -0.48954758
0.16407996 -0.11782313 0.19991362 -0.17345637

layers.2.running_mean f4 [100]
00000000: d544 0c42 75b7 a041 0c78 2e42 b162 3b42
00000010: a1d4 9744 325f 7841 434c 7541 a054 e540
00000020: a3ee 8d41 b042 cc42 7e90 9141 a406 8f41
00000030: f63f 4140 5283 7441 9402 1d41 52a8 ec43
00000040: 9ab7 5541 b7b1 3a41 aa50 5541 392a 3b42
00000050: 2f6e 6744 536c 8944 db88 f140 2f46 4b42
00000060: 6c71 3041 86cf 0941 e6c8 f741 cc21 9e41
00000070: 9ed6 6b42 2033 2144 25e0 c441 49d1 ff43
00000080: 4df4 e541 08b5 8241 eb93 5d40 d6cf 2b41
00000090: 9fd9 8041 fa5e 8141 29e9 bd41 881f a143
000000a0: dbe4 8142 7454 3c42 ec7f ce41 2f6d 1341
000000b0: b6d9 8d41 0087 3842 5e2b 0e41 a819 6b41
000000c0: 3f7a de40 4a47 e240 bc9f 8e42 4dd3 4544
000000d0: 9b23 de43 256e 2941 e09b 6541 5a01 a544
000000e0: 8b3f 6241 8569 b741 34cb 6b42 8135 1d42
000000f0: 7f86 de41 8961 2d40 d566 6642 e799 4041
00000100: d110 4e41 47d2 7842 acf4 9542 ccb0 a542
00000110: 09af b940 aa60 0b41 0c3a 3841 09b9 6740
00000120: f1fc ec41 9aed 0842 c0ea de40 bba0 ac41
00000130: 51d4 3743 f289 4142 a504 fd40 1e6d 2d42
00000140: 2de1 4d41 f6ed 7844 5092 4241 1ad0 1043
00000150: 09c2 1141 f799 b240 0220 ab40 d4a4 123f
00000160: 7c63 a941 6aba 6841 40df 5741 8d2c be40
00000170: 9546 4142 5689 1541 f5f0 4941 d812 5843
00000180: 6f0f d540 8e65 9941 8572 a843 c8d6 6f41
35.06722 20.089579 43.617233 46.84638 1214.6447 15.523241 15.331119 7.16658
17.741522 102.13025 18.195553 17.878242 3.0195289 15.282061 9.813129 473.315
13.357325 11.668387 13.332193 46.791233 925.7216 1099.3851 7.547956 50.81854
11.027691 8.613165 30.973095 19.766502 58.959587 644.7988 24.609446 511.63504
28.744287 16.338394 3.4621532 10.738241 16.10626 16.171375 23.738848 322.24634
64.94698 47.082474 25.812462 9.214156 17.731304 46.131836 8.885588 14.693764
6.9524226 7.0712023 71.31198 791.3016 444.27817 10.589391 14.350555 1320.0422
14.140513 22.926523 58.94844 39.30225 27.815672 2.709078 57.60042 12.037574
12.879106 62.20535 74.977875 82.84531 5.8026166 8.7111 11.514172 3.6206686
29.623507 34.232033 6.966156 21.578482 183.82936 48.384712 7.906817 43.35656
12.867475 995.71814 12.160721 144.8129 9.109872 5.5812945 5.347657 0.5728276
21.173576 14.545511 13.492004 5.9429383 48.318928 9.346029 12.621327 216.07361
6.658134 19.174587 336.89468 14.989937

layers.2.running_var f4 [100]
00000000: 2410 2a46 050b 1345 36e9 ac46 dd0d 5546
00000010: 6f48 0f49 27ea 7945 8b86 0a45 c901 ab44
00000020: 7f61 d745 5908 2b47 a3df 0a46 b9e2 8545
00000030: 398b 0744 aa96 df45 3396 1445 9ab8 1948
00000040: d6e6 9745 b6fe 7545 f368 ca45 fb87 bb46
00000050: 6882 ac48 4cbd 0149 45f5 5a45 3d81 df46
00000060: cc30 7645 e011 bc45 966a a846 3758 9f45
00000070: 9136 6746 1068 4d48 c36e 3b46 00c3 fc47
00000080: 5085 2b46 fd47 de45 2625 4e44 d790 4b45
00000090: 7774 d545 2d24 ee45 8e7b 9645 3aeb f147
000000a0: 3b56 1947 fdf7 9746 4d1b c545 08e6 8545
000000b0: 00e3 4d45 2aed 9e46 293a 6245 8240 d845
000000c0: f580 af45 87d2 4345 2c53 9f46 ba35 6948
000000d0: 2ff3 d347 3e00 7545 3961 c845 7741 2d49
000000e0: 0801 8745 c064 0b46 dfb0 fb46 0502 cb45
000000f0: f37b d545 919d 0544 ebd4 d446 e0e0 0445
00000100: 0716 8a45 c9cf da46 6acf aa46 82d7 d046
00000110: 4caf 2d45 ef37 5a45 bac3 9945 9ef8 5c45
00000120: f497 2246 1adb 5046 88d0 f844 1391 5c45
00000130: c4df 7c47 c1ec 4c46 56d0 6045 16cd 4746
00000140: 2b9f a645 b572 e648 27c0 b345 0b9a 1547
00000150: 72c2 d445 ef45 bd44 9a93 ab44 a96e 3143
00000160: e7a7 0246 99ec 8245 01cb 0245 fcc3 b544
00000170: 0b73 af46 ba02 8545 f11f f144 c332 9e47
00000180: 81ab d644 b4ac d345 24c0 8547 a618 9d45
10884.035 2352.6887 22132.605 13635.466 586886.94 3998.6345 2216.409 1368.0558
6892.187 43784.348 8887.909 4284.3403 542.17535 7154.833 2377.3875 157410.4
4860.8545 3935.9194 6477.1187 24003.99 353299.25 531412.75 3503.3293 28608.62
3939.0498 6018.2344 21557.293 5099.027 14797.642 210336.25 11995.69 129414.0
10977.328 7112.9985 824.58044 3257.0525 6830.558 7620.522 4815.4443 123862.45
39254.23 19451.994 6307.4126 4284.754 3294.1875 20342.582 3619.635 6920.0635
5616.1196 3133.158 20393.586 238806.9 108518.37 3920.0151 6412.153 709655.44
4320.129 8921.1875 32216.436 6496.2524 6831.4937 534.462 27242.459 2126.0547
4418.7534 28007.893 21863.707 26731.754 2778.956 3491.4958 4920.466 3535.5386
10405.988 13366.775 1990.5166 3529.0671 64735.766 13115.188 3597.021 12787.271
5331.896 471957.66 5752.019 38298.043 6808.3057 1514.1854 1372.6125 177.43227
8361.976 4189.5747 2092.6877 1454.1245 22457.521 4256.341 1928.9982 80997.52
1717.3595 6773.588 68480.28 5027.081

layers.4.weight f4 [50, 100]
00000000: 7a7b 4740 d6b0 d6c0 855d ca40 10e4 0940
00000010: 19d8 f040 d12a 8340 385a cfc0 f74c 06c1
00000020: f595 8640 a73e 84c0 7aba 2240 8bbf 983f
00000030: 21b6 f6c0 58f4 7440 ac2e d940 f868 8bc0
00000040: f47e a340 c71b c7c0 ffc6 5a40 8861 be40
00000050: a444 c2c0 8501 c1c0 b5b9 7440 7bdc 7040
00000060: fb1c 3e40 4782 8840 a31e 1ec1 8052 2ac0
00000070: 18de dac0 fcdc bfc0 1eb2 9bc0 061f 0bc0
00000080: 5213 7040 bb80 8640 4683 01c0 90dc 4fc1
00000090: 65be 9840 c75c a3c0 cfcf 24c1 39fc a5c0
000000a0: a1c7 8d41 9821 6b40 708a 1dc1 d6dc 9640
000000b0: 8969 19c1 85a1 9e40 65d3 b940 6d84 c3bf
000000c0: cea7 4a40 80c3 9d40 cd4e dac0 8cd8 c840
000000d0: e0ef 043f c38c 8c40 dbbe 8e40 2cf4 f3c0
000000e0: 0282 4e40 537b 5341 fe04 7340 1ba7 e7c0
000000f0: 4590 1bc1 c7da ae40 7c77 5940 b5dd 48c1
00000100: f1a9 8140 ca8d 68c0 2eef 08c1 999a 10c1
00000110: 3ae3 bf40 70c7 9c40 d5cc 3b40 eb8a b940
00000120: a0c2 6740 2093 3940 1376 6b40 5650 f6c0
00000130: e9b3 efc0 9977 17c1 2a46 a640 cb12 bfc0
00000140: 75df 64c1 993f cdc0 55a0 97c0 6ab8 5dc0
00000150: 6f0e 5b40 babc 7e40 0eed 3540 ec15 f9bf
00000160: 8c1d 1e40 42ae 8a40 82d7 1bc1 50b0 9940
00000170: 88ae 5340 1317 3840 2a03 19c1 4d34 0441
00000180: 80f2 1cc1 f452 6b40 cfd2 8a3d 9f47 8740
00000190: ab81 3640 2d43 b4c0 5267 b140 bf60 8f40
000001a0: 621f cf40 27e0 7c40 7103 c7c0 a675 f7c0
000001b0: 4b97 d240 740e 9dc0 79d4 8140 017e 7140
000001c0: 693e ebc0 ba4a 5440 8735 8c40 cba5 9cc0
000001d0: 7368 3e40 6e34 e2c0 25df 4d40 399b e140
000001e0: a94f d0c0 0be2 bac0 17bd 8840 c22d 7040
000001f0: 0bfa 7140 9965 9240 5a7b 39c1 6a85 28c0
00000200: 992f cec0 00a4 c6c0 cb2f 6fc0 f768 89bf
00000210: fa38 9540 f4e4 8f40 9421 96c0 a194 63c1
00000220: 8af7 b540 0533 e1c0 ba91 20c1 423f 9cc0
00000230: 069b 9541 39cb 8040 6d8b 24c1 547c 9640
00000240: 24f9 26c1 47aa 1f40 eefa c440 c829 8cc0
00000250: 6012 1740 5292 a940 9c2e dbc0 fcda aa40
00000260: 11f8 fabf bfbf a440 f6c0 2640 b14b 03c1
00000270: 9190 7640 ef0b 4e41 883c f63f 5061 adc0
00000280: 0b3f 25c1 07ea 9840 dac4 4b40 3fab 47c1
00000290: 26e5 7840 7cbc 96c0 e73d 13c1 4508 0dc1
000002a0: 7995 c040 ce5b 8f40 06d0 1740 73e2 8040
000002b0: a248 8240 34c1 2f40 05d4 0e40 e130 dac0
000002c0: d793 dbc0 81eb 30c1 dd59 7a40 14a3 d8c0
000002d0: da6e 59c1 2939 a7c0 f5e2 70c0 2a65 7cc0
000002e0: 87c2 1140 ea49 2740 1790 6840 39e6 1f3f
000002f0: 6cda 2b40 cba9 bb40 fcf8 26c1 625e 8340
00000300: a237 4e40 ce74 5a40 044f 0bc1 9166 f140
00000310: 70ca 13c1 9ca3 5240 d591 64bd d5c0 a240
00000320: 4fd3 7240 f134 afc0 c341 8440 c2a5 4540
00000330: 5856 e140 303d 9d40 85f0 b8c0 0242 0ec1
00000340: 9756 4940 8af2 bfc0 6cb4 7940 f92e 923f
00000350: e0c0 c4c0 1c2d 9b40 f23c a440 01f2 7ac0
00000360: acdd 9e40 4478 cbc0 93e5 1c40 1033 aa40
00000370: c166 c4c0 3b54 a3c0 358a a640 4531 9640
00000380: 32ea 8440 0ee0 a340 afbb 24c1 8f05 5bc0
00000390: 7425 c6c0 d8d6 bbc0 24a2 04c0 1554 4cbf
000003a0: 7972 3940 68ce 5040 18a6 b2c0 16af 50c1
000003b0: 2c5d 8340 3ed2 c5c0 215d 22c1 5ada 8ec0
000003c0: 3b56 8c41 b9ca 6d40 561f 14c1 d0f9 9540
000003d0: 6b77 3ac1 48b5 3f40 d7b2 af40 be31 1ec0
000003e0: e880 2840 7848 9040 8c02 f0c0 af5d 9a40
000003f0: 17e1 adbf 233b cf40 c93d d240 5f88 05c1
3.1169114 -6.7090864 6.323916 2.1545448 7.526379 4.0989766 -6.479763 -8.39379
4.2058053 -4.132648 2.5426316 1.1933454 -7.7097325 3.8274136 6.7869473 -4.3565636
5.109247 -6.222141 3.4183958 5.9494057 -6.070879 -6.0314355 3.8238347 3.763457
2.9705188 4.265903 -9.88248 -2.6612854 -6.839611 -5.9957256 -4.865493 -2.1737685
3.7511792 4.203214 -2.0236373 -12.991348 4.7732415 -5.1050754 -10.3007345 -5.187039
17.722475 3.6739254 -9.846298 4.7144575 -9.588265 4.9572167 5.807055 -1.5274788
3.166492 4.9301147 -6.822119 6.276434 0.5192852 4.392183 4.460798 -7.623556
3.226685 13.217608 3.7971797 -7.2391486 -9.722722 5.464206 3.3979177 -12.554128
4.051995 -3.633654 -8.5583935 -9.037744 5.9964876 4.8993454 2.934377 5.7982078
3.621254 2.8996048 3.6790817 -7.6973066 -7.4907117 -9.466699 5.196065 -5.971044
-14.304555 -6.4140134 -4.738322 -3.4643807 3.422756 3.980269 2.8425937 -1.9459815
2.4705534 4.3337717 -9.740114 4.8027725 3.3075275 2.8764083 -9.563272 8.262769
-9.809204 3.676938 0.0677849 4.227493 2.8516643 -5.6332 5.5438623 4.48056
6.472581 3.9511812 -6.21917 -7.7331114 6.5809684 -4.9080143 4.0571866 3.7733157
-7.3513684 3.317061 4.381534 -4.8952384 2.975125 -7.0689 3.2167447 7.050198
-6.509724 -5.840093 4.2730823 3.7527928 3.7808864 4.574902 -11.592615 -2.633143
-6.4433103 -6.2075195 -3.737292 -1.0735158 4.663205 4.4966984 -4.691599 -14.223786
5.686467 -7.037478 -10.035578 -4.882722 18.700695 4.0248075 -10.2840395 4.702677
-10.435825 2.494768 6.155631 -4.3801003 2.3604965 5.2991114 -6.8494396 5.3392315
-1.9606954 5.1484065 2.6055274 -8.205979 3.8525736 12.877913 1.9237223 -5.418129
-10.327891 4.778568 3.1838899 -12.479308 3.888986 -4.7105083 -9.202613 -8.814519
6.018246 4.4799566 2.3720717 4.0276427 4.0713663 2.7461672 2.2316906 -6.8184667
-6.861797 -11.057496 3.9117348 -6.769907 -13.589563 -5.2257276 -3.7638524 -3.9436746
2.277498 2.6138864 3.6337945 0.62460667 2.6852064 5.8644767 -10.435787 4.1052713
3.2221456 3.4133792 -8.706791 7.5437703 -9.236923 3.291236 -0.05580314 5.086039
3.7941473 -5.4752126 4.1330276 3.088242 7.04179 4.913719 -5.7793603 -8.891115
3.14591 -5.998357 3.901637 1.1420585 -6.1485443 4.8492565 5.1324396 -3.9210207
4.9645596 -6.358431 2.451512 5.318733 -6.137543 -5.104032 5.204371 4.6935143
4.1535883 5.1211004 -10.295821 -3.4222143 -6.192072 -5.869976 -2.0723963 -0.798158
2.8976119 3.262598 -5.582775 -13.042746 4.1051235 -6.1819143 -10.147737 -4.4641542
17.542105 3.7154982 -9.25765 4.6867447 -11.654155 2.9954395 5.490581 -2.471786
2.6328678 4.5088463 -7.500311 4.823936 -1.3584317 6.475969 6.570042 -8.345794

layers.4.bias f4 [50]
00000000: b61a e142 c46e e342 f2cc e442 2a5b 3443
00000010: 9f8f 2d43 0700 e742 6642 3743 8b85 e442
00000020: 4638 3243 9d2d 2843 72ed e842 8fa6 2643
00000030: 6b86 e542 e1ce 3543 72a1 2543 c60c e642
00000040: 77fe 3743 2720 e842 b17c e942 18de 2643
00000050: 560d e342 7d98 3443 a4a9 2d43 297b e642
00000060: d671 e542 3e94 2b43 0547 2f43 d027 2443
00000070: fd95 e442 57ce 3543 3e8e e342 d327 3643
00000080: e8eb 3743 7f5a e842 1572 3443 86c9 e242
00000090: 78ae 3743 b209 2643 9925 e842 ec1f e742
000000a0: 9ce1 e342 6897 3943 61c7 3843 e1fe 3643
000000b0: e033 e442 8698 e342 e4c8 2243 db1d e242
000000c0: 3c80 3743 6fed 1f43
112.55217 113.71634 114.40028 180.35611 173.56102 115.50005 183.25937 114.260826
178.21982 168.17818 116.46376 166.65062 114.762535 181.80812 165.63065 115.02495
183.994 116.0628 116.74354 166.86755 113.52605 180.59566 173.66266 115.24055
114.722336 171.57907 175.27742 164.15552 114.292946 181.80602 113.77782 182.15556
183.92151 116.17675 180.44563 113.3936 183.68152 166.03787 116.07343 115.56235
113.94064 185.59143 184.77882 182.99562 114.10132 113.7979 162.78473 113.05831
183.50092 159.92747

layers.6.weight f4 [50]
00000000: 52a7 7e44 bcbe 7e44 b3b9 7e44 d89c 7e44
00000010: 1a9f 7e44 27ba 7e44 f1d8 7e44 e7c8 7e44
00000020: e0cb 7e44 41cb 7e44 e886 7e44 2ee0 7e44
00000030: a1d1 7e44 65aa 7e44 5bea 7e44 c79c 7e44
00000040: cebb 7e44 73a4 7e44 90a2 7e44 13d9 7e44
00000050: 2cbe 7e44 c2e3 7e44 e9c0 7e44 18b6 7e44
00000060: 64a6 7e44 9dd8 7e44 97ce 7e44 66ef 7e44
00000070: 49ba 7e44 db01 7f44 5eb3 7e44 8dc4 7e44
00000080: 64be 7e44 48b3 7e44 f2e1 7e44 b398 7e44
00000090: 73d7 7e44 abe7 7e44 bac7 7e44 61af 7e44
000000a0: 0db0 7e44 d0c7 7e44 11d2 7e44 0ea2 7e44
000000b0: c4d7 7e44 ca93 7e44 aeec 7e44 c4e3 7e44
000000c0: 5ac8 7e44 4201 7f44
1018.6144 1018.9802 1018.90155 1018.4507 1018.48596 1018.9086 1019.3897 1019.1391
1019.18555 1019.17584 1018.1079 1019.5028 1019.27545 1018.6624 1019.6618 1018.44965
1018.93445 1018.5695 1018.54004 1019.3918 1018.97144 1019.5587 1019.0142 1018.8452
1018.59985 1019.3846 1019.22797 1019.7406 1018.9107 1020.029 1018.8026 1019.0711
1018.97485 1018.8013 1019.5304 1018.3859 1019.3664 1019.6198 1019.1207 1018.7403
1018.7508 1019.1221 1019.2823 1018.5321 1019.37134 1018.3092 1019.6981 1019.55884
1019.1305 1020.01965

layers.6.bias f4 [50]
00000000: c7ba 7e44 83b0 7e44 b8aa 7e44 1587 7ec4
00000010: 85a2 7ec4 d4b5 7e44 afb8 7ec4 0fac 7e44
00000020: 06ad 7ec4 a39a 7ec4 589e 7e44 08a3 7ec4
00000030: f8ba 7e44 9fa0 7ec4 c8a3 7ec4 24ae 7e44
00000040: 8f94 7ec4 41ad 7e44 869c 7e44 65a5 7ec4
00000050: cea7 7e44 88a9 7ec4 bfab 7ec4 c1ab 7e44
00000060: e1a5 7e44 cda3 7ec4 dab0 7ec4 5cb1 7ec4
00000070: 14b9 7e44 c8b6 7ec4 1cb6 7e44 e1b1 7ec4
00000080: 71b1 7ec4 d7b3 7e44 daa8 7ec4 d999 7e44
00000090: ddb0 7ec4 87b1 7ec4 d8ba 7e44 33a8 7e44
000000a0: 05a9 7e44 6aa7 7ec4 dcaf 7ec4 5d9e 7ec4
000000b0: 7db4 7e44 f69e 7e44 379f 7ec4 faab 7e44
000000c0: a99c 7ec4 1ab0 7ec4
1018.9184 1018.758 1018.6675 -1018.11066 -1018.53937 1018.84106 -1018.8857 1018.6884
-1018.7035 -1018.4162 1018.4741 -1018.54736 1018.9214 -1018.5097 -1018.5591 1018.72095
-1018.3212 1018.7071 1018.4457 -1018.5843 1018.62195 -1018.6489 -1018.68353 1018.68365
1018.59186 -1018.5594 -1018.7633 -1018.77124 1018.89185 -1018.85596 1018.84546 -1018.77936
-1018.7725 1018.81 -1018.6383 1018.4039 -1018.7635 -1018.77386 1018.91943 1018.6281
1018.6409 -1018.61584 -1018.7478 -1018.4744 1018.8201 1018.48376 -1018.48773 1018.68713
-1018.4478 -1018.7516

layers.6.running_mean f4 [50]
00000000: 16b3 ea42 0707 ef42 d315 ed42 ce3b 3943
00000010: 4e38 3543 f6be ed42 6f10 3c43 200c f042
00000020: d1e9 3743 f98d 3143 c755 ef42 17df 2f43
00000030: 1a18 f242 b078 3b43 149c 2c43 f591 ed42
00000040: d8d5 3b43 77c2 f142 2825 ee42 4bc5 2e43
00000050: fd9e eb42 8870 3843 95d4 3443 2651 f142
00000060: 235f f142 8fc8 3343 79b9 3643 b71c 2d43
00000070: 0896 ef42 caaa 3a43 ec11 f142 21dd 3943
00000080: a2af 3c43 0b2a f142 13a9 3843 0c7d ef42
00000090: 9faf 3b43 5726 2f43 ef2a f142 15ca f342
000000a0: 8996 f142 ba2d 3d43 82f8 3c43 2634 3c43
000000b0: 0360 ed42 947e ed42 d209 2d43 23d9 ed42
000000c0: a5a5 3b43 7f5b 2943
117.34978 119.513725 118.542625 185.23361 181.21994 118.87297 188.0642 120.02368
183.91335 177.55458 119.667534 175.87144 121.04707 187.47144 172.60968 118.78507
187.83533 120.879814 119.07257 174.77068 117.810524 184.43958 180.8304 120.65849
120.685814 179.78343 182.7245 173.11217 119.79303 186.66714 120.535 185.86378
188.68607 120.582115 184.66045 119.74423 187.68602 175.14977 120.583855 121.89469
120.794014 189.17862 188.97073 188.2037 118.68752 118.74722 173.03836 118.924095
187.64705 169.3574

layers.6.running_var f4 [50]
00000000: b58c 0e47 f845 0f47 6a27 0b47 b82f 8244
00000010: 84cb 1545 7de8 0a47 1408 7f44 ccec 0d47
00000020: e625 e244 2c3a 2f45 87d0 0a47 d9dd 2545
00000030: e13e 1347 618d b144 0699 1745 a0ec 0e47
00000040: 73a2 5144 9043 0d47 7ec0 0d47 7162 2a45
00000050: 44ef 0947 a73e 8344 d4e2 1145 80e6 0e47
00000060: 5919 1147 857c 1f45 0d49 1a45 5ad5 2e45
00000070: e1e4 0e47 f199 8f44 b2b6 1047 639d 8c44
00000080: 7898 8044 813f 0e47 8c64 9744 ca18 0f47
00000090: 7968 5644 8ccb 2445 9120 0e47 2aa1 0b47
000000a0: b95e 1047 3476 4244 3922 6844 3195 bf44
000000b0: 096d 0d47 ee5b 0a47 ab5a 4045 1157 0f47
000000c0: dfa4 6644 7179 2145
36492.707 36677.97 35623.414 1041.4912 2396.7197 35560.49 1020.1262 36332.797
1809.1843 2803.6357 35536.527 2653.8655 37694.88 1420.4181 2425.564 36588.625
838.53827 36163.562 36288.492 2726.1526 35311.266 1049.9579 2334.1768 36582.5
37145.348 2551.7825 2468.5657 2797.3345 36580.88 1148.8107 37046.695 1124.9183
1028.7646 36415.504 1211.1421 36632.79 857.6324 2636.7217 36384.566 35745.164
36958.723 777.8469 928.5347 1532.6622 36205.035 35419.93 3077.6667 36695.066
922.5761 2583.59

layers.8.weight f4 [1, 50]
00000000: 30fb 7e44 89fa 7e44 ad16 7f44 d7c8 7ec4
00000010: d7eb 7ec4 bdf3 7e44 e0f6 7ec4 84fe 7e44
00000020: 67ea 7ec4 dbe5 7ec4 33fa 7e44 aaf7 7ec4
00000030: 5a1a 7f44 38dd 7ec4 4b02 7fc4 41f7 7e44
00000040: 9ed9 7ec4 feef 7e44 69f7 7e44 b9ed 7ec4
00000050: f31a 7f44 4afe 7ec4 e0e4 7ec4 8404 7f44
00000060: c0fa 7e44 27f2 7ec4 7dee 7ec4 e50a 7fc4
00000070: d6fe 7e44 3c02 7fc4 ccfb 7e44 fde6 7ec4
00000080: 45ec 7ec4 4af6 7e44 0cfb 7ec4 86df 7e44
00000090: 73f6 7ec4 0ff4 7ec4 f609 7f44 7802 7f44
000000a0: c1fc 7e44 c0e9 7ec4 3cf3 7ec4 0ac8 7ec4
000000b0: 7011 7f44 b9e3 7e44 b9f6 7ec4 0e1f 7f44
000000c0: 0cd6 7ec4 e500 7fc4
1019.9248 1019.9146 1020.3543 -1019.1381 -1019.685 1019.8084 -1019.8574 1019.9768
-1019.66254 -1019.5915 1019.90936 -1019.86975 1020.41174 -1019.45654 -1020.0358 1019.86334
-1019.40027 1019.7499 1019.8658 -1019.7144 1020.4211 -1019.97327 -1019.5762 1020.07056
1019.91797 -1019.7836 -1019.7264 -1020.1702 1019.9818 -1020.0349 1019.9343 -1019.6092
-1019.6917 1019.84827 -1019.9226 1019.49255 -1019.85077 -1019.8134 1020.15564 1020.0386
1019.9493 -1019.65234 -1019.80054 -1019.1256 1020.27246 1019.55817 -1019.85504 1020.4852
-1019.3445 -1020.014
